…
The number of inters: 454397
The sparsity of the dataset: 99.96782653619108%
Remain Fields: ['user_id', 'item_id_list', 'rating_list', 'time_gap_list', 'recency_list', 'item_id', 'item_length']
24 May 17:26    INFO  [Training]: train_batch_size = [2048] train_neg_sample_args: [{'distribution': 'none', 'sample_num': 'none', 'alpha': 'none', 'dynamic': False, 'candidate_num': 0}]
24 May 17:26    INFO  [Evaluation]: eval_batch_size = [2048] eval_args: [{'split': {'LS': 'valid_and_test'}, 'order': 'TO', 'group_by': 'user', 'mode': {'valid': 'full', 'test': 'full'}}]
24 May 17:26    INFO  RichUniSRec(
  (item_embedding): Embedding(24588, 300, padding_idx=0)
  (position_embedding): Embedding(50, 300)
  (trm_encoder): TransformerEncoder(
    (layer): ModuleList(
      (0-2): 3 x TransformerLayer(
        (multi_head_attention): MultiHeadAttention(
          (query): Linear(in_features=300, out_features=300, bias=True)
          (key): Linear(in_features=300, out_features=300, bias=True)
          (value): Linear(in_features=300, out_features=300, bias=True)
          (softmax): Softmax(dim=-1)
          (attn_dropout): Dropout(p=0.3, inplace=False)
          (dense): Linear(in_features=300, out_features=300, bias=True)
          (LayerNorm): LayerNorm((300,), eps=1e-12, elementwise_affine=True)
          (out_dropout): Dropout(p=0.3, inplace=False)
        )
        (feed_forward): FeedForward(
          (dense_1): Linear(in_features=300, out_features=512, bias=True)
          (dense_2): Linear(in_features=512, out_features=300, bias=True)
          (LayerNorm): LayerNorm((300,), eps=1e-12, elementwise_affine=True)
          (dropout): Dropout(p=0.3, inplace=False)
        )
      )
    )
  )
  (LayerNorm): LayerNorm((300,), eps=1e-12, elementwise_affine=True)
  (dropout): Dropout(p=0.3, inplace=False)
  (loss_fct): CrossEntropyLoss()
  (plm_embedding): Embedding(24588, 768, padding_idx=0)
  (moe_adaptor): MoEAdaptorLayer(
    (experts): ModuleList(
      (0-7): 8 x PWLayer(
        (dropout): Dropout(p=0.1, inplace=False)
        (lin): Linear(in_features=768, out_features=300, bias=False)
      )
    )
  )
  (struct_embeddings): ModuleList(
    (0): Embedding(9, 32, padding_idx=0)
    (1): Embedding(11, 32, padding_idx=0)
    (2-3): 2 x Embedding(22, 32, padding_idx=0)
    (4): Embedding(567, 32, padding_idx=0)
  )
  (struct_projection): Linear(in_features=160, out_features=300, bias=True)
  (rating_embedding): Embedding(6, 32, padding_idx=0)
  (time_gap_embedding): Embedding(10, 32, padding_idx=0)
  (recency_embedding): Embedding(51, 32, padding_idx=0)
  (user_feature_projection): Linear(in_features=96, out_features=300, bias=True)
)
Trainable parameters: 11364604
24 May 17:27    INFO  epoch 0 training [time: 49.98s, train loss: 1584.4318]
24 May 17:27    INFO  epoch 0 evaluating [time: 2.24s, valid_score: 0.019600]
24 May 17:27    INFO  valid result: 
recall@10 : 0.0385    recall@50 : 0.1087    ndcg@10 : 0.0196    ndcg@50 : 0.0347
24 May 17:27    INFO  Saving current: checkpoints/RichUniSRec-May-24-2026_17-26-54.pth
…
